…
Skipping registering GPU devices...
2022-03-30 02:35:47.713466: I tensorflow/core/platform/cpu_feature_guard.cc:151] This TensorFlow binary is optimized with oneAPI Deep Neural Network Library (oneDNN) to use the following CPU instructions in performance-critical operations:  AVX AVX2
To enable them in other operations, rebuild TensorFlow with the appropriate compiler flags.
Model: "sequential"
_________________________________________________________________
 Layer (type)                Output Shape              Param #
=================================================================
 conv2d (Conv2D)             (None, 8, 8, 128)         1280

 flatten (Flatten)           (None, 8192)              0

 dense (Dense)               (None, 128)               1048704

 dense_1 (Dense)             (None, 64)                8256

 dense_2 (Dense)             (None, 32)                2080

 dense_3 (Dense)             (None, 16)                528

 dense_4 (Dense)             (None, 8)                 136

 dense_5 (Dense)             (None, 1)                 9

=================================================================
Total params: 1,060,993
Trainable params: 1,060,993
Non-trainable params: 0
_________________________________________________________________
Total number of test data  5474
Total number of correct prediction 5374
Total number of incorrect prediction 100
Accuracy for test data set 98.17318231640483